…
2024-01-24 22:33:58.851651:adding final layer with 1 output
2024-01-24 22:33:58.861631:Model: "ElemNet"
2024-01-24 22:33:58.861703:_________________________________________________________________
2024-01-24 22:33:58.861755:Layer (type)                 Output Shape              Param #   
2024-01-24 22:33:58.861790:=================================================================
2024-01-24 22:33:58.862027:elemental_fractions (InputLa [(None, 86)]              0         
2024-01-24 22:33:58.862079:_________________________________________________________________
2024-01-24 22:33:58.862475:fc0_0 (Dense)                (None, 1024)              89088     
2024-01-24 22:33:58.862528:_________________________________________________________________
2024-01-24 22:33:58.862638:fc0_1 (Dense)                (None, 1024)              1049600   
2024-01-24 22:33:58.862678:_________________________________________________________________
2024-01-24 22:33:58.862773:fc0_2 (Dense)                (None, 1024)              1049600   
2024-01-24 22:33:58.862811:_________________________________________________________________
2024-01-24 22:33:58.862902:fc0_3 (Dense)                (None, 1024)              1049600   
2024-01-24 22:33:58.862941:_________________________________________________________________
2024-01-24 22:33:58.863010:dropout (Dropout)            (None, 1024)              0         
2024-01-24 22:33:58.863045:_________________________________________________________________
2024-01-24 22:33:58.863135:fc1_0 (Dense)                (None, 512)               524800    
2024-01-24 22:33:58.863173:_________________________________________________________________
2024-01-24 22:33:58.863262:fc1_1 (Dense)                (None, 512)               262656    
2024-01-24 22:33:58.863299:_________________________________________________________________
2024-01-24 22:33:58.863387:fc1_2 (Dense)                (None, 512)               262656    
2024-01-24 22:33:58.863430:_________________________________________________________________
2024-01-24 22:33:58.863496:dropout_1 (Dropout)          (None, 512)               0         
2024-01-24 22:33:58.863531:_________________________________________________________________
2024-01-24 22:33:58.863621:fc2_0 (Dense)                (None, 256)               131328    
2024-01-24 22:33:58.863663:_________________________________________________________________
2024-01-24 22:33:58.863754:fc2_1 (Dense)                (None, 256)               65792     
2024-01-24 22:33:58.863792:_________________________________________________________________
2024-01-24 22:33:58.863880:fc2_2 (Dense)                (None, 256)               65792     
2024-01-24 22:33:58.863918:_________________________________________________________________
2024-01-24 22:33:58.863983:dropout_2 (Dropout)          (None, 256)               0         
2024-01-24 22:33:58.864017:_________________________________________________________________
2024-01-24 22:33:58.864105:fc3_0 (Dense)                (None, 128)               32896     
2024-01-24 22:33:58.864142:_________________________________________________________________
2024-01-24 22:33:58.864232:fc3_1 (Dense)                (None, 128)               16512     
2024-01-24 22:33:58.864269:_________________________________________________________________
2024-01-24 22:33:58.864357:fc3_2 (Dense)                (None, 128)               16512     
2024-01-24 22:33:58.864394:_________________________________________________________________
2024-01-24 22:33:58.864464:dropout_3 (Dropout)          (None, 128)               0         
2024-01-24 22:33:58.864499:_________________________________________________________________
2024-01-24 22:33:58.864587:fc4_0 (Dense)                (None, 64)                8256      
2024-01-24 22:33:58.864624:_________________________________________________________________
2024-01-24 22:33:58.864712:fc4_1 (Dense)                (None, 64)                4160      
2024-01-24 22:33:58.864749:_________________________________________________________________
2024-01-24 22:33:58.864837:fc5_0 (Dense)                (None, 32)                2080      
2024-01-24 22:33:58.864875:_________________________________________________________________
2024-01-24 22:33:58.864965:fc6 (Dense)                  (None, 1)                 33        
2024-01-24 22:33:58.865003:=================================================================
2024-01-24 22:33:58.865455:Total params: 4,631,361
2024-01-24 22:33:58.865509:Trainable params: 4,631,361
2024-01-24 22:33:58.865545:Non-trainable params: 0
2024-01-24 22:33:58.865635:_________________________________________________________________
2024-01-24 22:33:58.877280:start training
2024-01-24 22:34:00.042041:2024-01-24 22:34:00.042007: Current epoch: 0, loss: 0.9815524816513062, validation loss: 0.93048495054245
…
