…
2024-01-24 22:36:07.936221:adding final layer with 1 output
2024-01-24 22:36:07.946038:Model: "ElemNet"
2024-01-24 22:36:07.946107:_________________________________________________________________
2024-01-24 22:36:07.946159:Layer (type)                 Output Shape              Param #   
2024-01-24 22:36:07.946196:=================================================================
2024-01-24 22:36:07.946434:elemental_fractions (InputLa [(None, 86)]              0         
2024-01-24 22:36:07.946489:_________________________________________________________________
2024-01-24 22:36:07.946881:fc0_0 (Dense)                (None, 1024)              89088     
2024-01-24 22:36:07.946933:_________________________________________________________________
2024-01-24 22:36:07.947046:fc0_1 (Dense)                (None, 1024)              1049600   
2024-01-24 22:36:07.947088:_________________________________________________________________
2024-01-24 22:36:07.947187:fc0_2 (Dense)                (None, 1024)              1049600   
2024-01-24 22:36:07.947228:_________________________________________________________________
2024-01-24 22:36:07.947323:fc0_3 (Dense)                (None, 1024)              1049600   
2024-01-24 22:36:07.947366:_________________________________________________________________
2024-01-24 22:36:07.947446:dropout (Dropout)            (None, 1024)              0         
2024-01-24 22:36:07.947485:_________________________________________________________________
2024-01-24 22:36:07.947583:fc1_0 (Dense)                (None, 512)               524800    
2024-01-24 22:36:07.947623:_________________________________________________________________
2024-01-24 22:36:07.947716:fc1_1 (Dense)                (None, 512)               262656    
2024-01-24 22:36:07.947756:_________________________________________________________________
2024-01-24 22:36:07.947848:fc1_2 (Dense)                (None, 512)               262656    
2024-01-24 22:36:07.947888:_________________________________________________________________
2024-01-24 22:36:07.947955:dropout_1 (Dropout)          (None, 512)               0         
2024-01-24 22:36:07.947993:_________________________________________________________________
2024-01-24 22:36:07.948084:fc2_0 (Dense)                (None, 256)               131328    
2024-01-24 22:36:07.948125:_________________________________________________________________
2024-01-24 22:36:07.948216:fc2_1 (Dense)                (None, 256)               65792     
2024-01-24 22:36:07.948256:_________________________________________________________________
2024-01-24 22:36:07.948348:fc2_2 (Dense)                (None, 256)               65792     
2024-01-24 22:36:07.948388:_________________________________________________________________
2024-01-24 22:36:07.948462:dropout_2 (Dropout)          (None, 256)               0         
2024-01-24 22:36:07.948501:_________________________________________________________________
2024-01-24 22:36:07.948592:fc3_0 (Dense)                (None, 128)               32896     
2024-01-24 22:36:07.948632:_________________________________________________________________
2024-01-24 22:36:07.948723:fc3_1 (Dense)                (None, 128)               16512     
2024-01-24 22:36:07.948762:_________________________________________________________________
2024-01-24 22:36:07.948853:fc3_2 (Dense)                (None, 128)               16512     
2024-01-24 22:36:07.948894:_________________________________________________________________
2024-01-24 22:36:07.948961:dropout_3 (Dropout)          (None, 128)               0         
2024-01-24 22:36:07.948998:_________________________________________________________________
2024-01-24 22:36:07.949089:fc4_0 (Dense)                (None, 64)                8256      
2024-01-24 22:36:07.949129:_________________________________________________________________
2024-01-24 22:36:07.949219:fc4_1 (Dense)                (None, 64)                4160      
2024-01-24 22:36:07.949259:_________________________________________________________________
2024-01-24 22:36:07.949350:fc5_0 (Dense)                (None, 32)                2080      
2024-01-24 22:36:07.949390:_________________________________________________________________
2024-01-24 22:36:07.949491:fc6 (Dense)                  (None, 1)                 33        
2024-01-24 22:36:07.949532:=================================================================
2024-01-24 22:36:07.949976:Total params: 4,631,361
2024-01-24 22:36:07.950032:Trainable params: 4,631,361
2024-01-24 22:36:07.950070:Non-trainable params: 0
2024-01-24 22:36:07.950104:_________________________________________________________________
2024-01-24 22:36:07.961555:start training
2024-01-24 22:36:09.075845:2024-01-24 22:36:09.075799: Current epoch: 0, loss: 0.9815524816513062, validation loss: 0.93048495054245
…
